…
I0512 21:30:21.742457 29057 solver.cpp:91] Creating training net from net file: train_val.prototxt
I0512 21:30:21.744575 29057 net.cpp:313] The NetState phase (0) differed from the phase (1) specified by a rule in layer data
I0512 21:30:21.745216 29057 net.cpp:49] Initializing net from parameters: 
name: "metric_cuhk03"
state {
  phase: TRAIN
}
layer {
  name: "data"
  type: "Python"
  top: "data"
  top: "label"
  include {
    phase: TRAIN
  }
  python_param {
    module: "layer"
    layer: "MetricDataLayer"
    param_str: "cuhk03"
    share_in_parallel: true
  }
}
layer {
  name: "slice"
  type: "Slice"
  bottom: "data"
  top: "anchor/data"
  top: "pair/data"
  slice_param {
    slice_dim: 1
    slice_point: 3
  }
}
layer {
  name: "split"
  type: "Python"
  bottom: "anchor/data"
  top: "anchor/0/data"
  top: "anchor/1/data"
  top: "anchor/2/data"
  python_param {
    module: "layer"
    layer: "SplitLayer"
    param_str: "3parts"
    share_in_parallel: true
  }
}
layer {
  name: "anchor/0/conv1"
  type: "Convolution"
  bottom: "anchor/0/data"
  top: "anchor/0/conv1"
  param {
    name: "/conv1"
    lr_mult: 1
    decay_mult: 0
  }
  param {
    name: "/conv1_b"
    lr_mult: 1
    decay_mult: 0
  }
  convolution_param {
    num_output: 64
    kernel_size: 5
    stride: 2
    weight_filler {
      type: "gaussian"
      std: 0.01
    }
    bias_filler {
      type: "constant"
      value: 0
    }
  }
}
layer {
  name: "anchor/0/relu1"
  type: "ReLU"
  bottom: "anchor/0/conv1"
  top: "anchor/0/conv1"
}
layer {
  name: "anchor/0/pool1"
  type: "Pooling"
  bottom: "anchor/0/conv1"
  top: "anchor/0/pool1"
  pooling_param {
    pool: MAX
    kernel_size: 2
    stride: 2
  }
}
layer {
  name: "anchor/1/conv1"
  type: "Convolution"
  bottom: "anchor/1/data"
  top: "anchor/1/conv1"
  param {
    name: "/conv1"
    lr_mult: 1
    decay_mult: 0
  }
  param {
    name: "/conv1_b"
    lr_mult: 1
    decay_mult: 0
  }
  convolution_param {
    num_output: 64
    kernel_size: 5
    stride: 2
    weight_filler {
      type: "gaussian"
      std: 0.01
    }
    bias_filler {
      type: "constant"
      value: 0
    }
  }
}
layer {
  name: "anchor/1/relu1"
  type: "ReLU"
  bottom: "anchor/1/conv1"
  top: "anchor/1/conv1"
}
layer {
  name: "anchor/1/pool1"
  type: "Pooling"
  bottom: "anchor/1/conv1"
  top: "anchor/1/pool1"
  pooling_param {
    pool: MAX
    kernel_size: 2
    stride: 2
  }
}
layer {
  name: "anchor/2/conv1"
  type: "Convolution"
  bottom: "anchor/2/data"
  top: "anchor/2/conv1"
  param {
    name: "/conv1"
    lr_mult: 1
    decay_mult: 0
  }
  param {
    name: "/conv1_b"
    lr_mult: 1
    decay_mult: 0
  }
  convolution_param {
    num_output: 64
    kernel_size: 5
    stride: 2
    weight_filler {
      type: "gaussian"
      std: 0.01
    }
    bias_filler {
      type: "constant"
      value: 0
    }
  }
}
layer {
  name: "anchor/2/relu1"
  type: "ReLU"
  bottom: "anchor/2/conv1"
  top: "anchor/2/conv1"
}
layer {
  name: "anchor/2/pool1"
  type: "Pooling"
  bottom: "anchor/2/conv1"
  top: "anchor/2/pool1"
  pooling_param {
    pool: MAX
    kernel_size: 2
    stride: 2
  }
}
layer {
  name: "anchor/0/conv2"
  type: "Convolution"
  bottom: "anchor/0/pool1"
  top: "anchor/0/conv2"
  param {
    name: "/0/conv2"
    lr_mult: 1
    decay_mult: 0
  }
  param {
    name: "/0/conv2_b"
    lr_mult: 1
    decay_mult: 0
  }
  convolution_param {
    num_output: 64
    kernel_size: 3
    stride: 1
    weight_filler {
      type: "gaussian"
      std: 0.01
    }
    bias_filler {
      type: "constant"
      value: 0
    }
  }
}
layer {
  name: "anchor/0/relu2"
  type: "ReLU"
  bottom: "anchor/0/conv2"
  top: "anchor/0/conv2"
}
layer {
  name: "anchor/0/pool2"
  type: "Pooling"
  bottom: "anchor/0/conv2"
  top: "anchor/0/pool2"
  pooling_param {
    pool: MAX
    kernel_size: 2
    stride: 2
  }
}
layer {
  name: "anchor/1/conv2"
  type: "Convolution"
  bottom: "anchor/1/pool1"
  top: "anchor/1/conv2"
  param {
    name: "/1/conv2"
    lr_mult: 1
    decay_mult: 0
  }
  param {
    name: "/1/conv2_b"
    lr_mult: 1
    decay_mult: 0
  }
  convolution_param {
    num_output: 64
    kernel_size: 3
    stride: 1
    weight_filler {
      type: "gaussian"
      std: 0.01
    }
    bias_filler {
      type: "constant"
      value: 0
    }
  }
}
layer {
  name: "anchor/1/relu2"
  type: "ReLU"
  bottom: "anchor/1/conv2"
  top: "anchor/1/conv2"
}
layer {
  name: "anchor/1/pool2"
  type: "Pooling"
  bottom: "anchor/1/conv2"
  top: "anchor/1/pool2"
  pooling_param {
    pool: MAX
    kernel_size: 2
    stride: 2
  }
}
layer {
  name: "anchor/2/conv2"
  type: "Convolution"
  bottom: "anchor/2/pool1"
  top: "anchor/2/conv2"
  param {
    name: "/2/conv2"
    lr_mult: 1
    decay_mult: 0
  }
  param {
    name: "/2/conv2_b"
    lr_mult: 1
    decay_mult: 0
  }
  convolution_param {
    num_output: 64
    kernel_size: 3
    stride: 1
    weight_filler {
      type: "gaussian"
      std: 0.01
    }
    bias_filler {
      type: "constant"
      value: 0
    }
  }
}
layer {
  name: "anchor/2/relu2"
  type: "ReLU"
  bottom: "anchor/2/conv2"
  top: "anchor/2/conv2"
}
layer {
  name: "anchor/2/pool2"
  type: "Pooling"
  bottom: "anchor/2/conv2"
  top: "anchor/2/pool2"
  pooling_param {
    pool: MAX
    kernel_size: 2
    stride: 2
  }
}
layer {
  name: "anchor/0/conv3"
  type: "Convolution"
  bottom: "anchor/0/pool2"
  top: "anchor/0/conv3"
  param {
    name: "/0/conv3"
    lr_mult: 1
    decay_mult: 0
  }
  param {
    name: "/0/conv3_b"
    lr_mult: 1
    decay_mult: 0
  }
  convolution_param {
    num_output: 64
    kernel_size: 5
    stride: 2
    weight_filler {
      type: "gaussian"
      std: 0.01
    }
    bias_filler {
      type: "constant"
      value: 0
    }
  }
}
layer {
  name: "anchor/0/relu3"
  type: "ReLU"
  bottom: "anchor/0/conv3"
  top: "anchor/0/conv3"
}
layer {
  name: "anchor/0/pool3"
  type: "Pooling"
  bottom: "anchor/0/conv3"
  top: "anchor/0/pool3"
  pooling_param {
    pool: MAX
    kernel_size: 2
    stride: 2
  }
}
layer {
  name: "anchor/1/conv3"
  type: "Convolution"
  bottom: "anchor/1/pool2"
  top: "anchor/1/conv3"
  param {
    name: "/1/conv3"
    lr_mult: 1
    decay_mult: 0
  }
  param {
    name: "/1/conv3_b"
    lr_mult: 1
    decay_mult: 0
  }
  convolution_param {
    num_output: 64
    kernel_size: 5
    stride: 2
    weight_filler {
      type: "gaussian"
      std: 0.01
    }
    bias_filler {
      type: "constant"
      value: 0
    }
  }
}
layer {
  name: "anchor/1/relu3"
  type: "ReLU"
  bottom: "anchor/1/conv3"
  top: "anchor/1/conv3"
}
layer {
  name: "anchor/1/pool3"
  type: "Pooling"
  bottom: "anchor/1/conv3"
  top: "anchor/1/pool3"
  pooling_param {
    pool: MAX
    kernel_size: 2
    stride: 2
  }
}
layer {
  name: "anchor/2/conv3"
  type: "Convolution"
  bottom: "anchor/2/pool2"
  top: "anchor/2/conv3"
  param {
    name: "/2/conv3"
    lr_mult: 1
    decay_mult: 0
  }
  param {
    name: "/2/conv3_b"
    lr_mult: 1
    decay_mult: 0
  }
  convolution_param {
    num_output: 64
    kernel_size: 5
    stride: 2
    weight_filler {
      type: "gaussian"
      std: 0.01
    }
    bias_filler {
      type: "constant"
      value: 0
    }
  }
}
layer {
  name: "anchor/2/relu3"
  type: "ReLU"
  bottom: "anchor/2/conv3"
  top: "anchor/2/conv3"
}
layer {
  name: "anchor/2/pool3"
  type: "Pooling"
  bottom: "anchor/2/conv3"
  top: "anchor/2/pool3"
  pooling_param {
    pool: MAX
    kernel_size: 2
    stride: 2
  }
}
layer {
  name: "anchor/0/ip1"
  type: "InnerProduct"
  bottom: "anchor/0/pool3"
  top: "anchor/0/ip1"
  param {
    name: "/0/ip1"
    lr_mult: 1
    decay_mult: 1
  }
  param {
    name: "/0/ip1_b"
    lr_mult: 0
    decay_mult: 0
  }
  inner_product_param {
    num_output: 512
    weight_filler {
      type: "gaussian"
      std: 0.01
    }
    bias_filler {
      type: "constant"
      value: 0
    }
  }
}
layer {
  name: "anchor/0/norm"
  type: "Normalization"
  bottom: "anchor/0/ip1"
  top: "anchor/0/feat"
}
layer {
  name: "anchor/1/ip1"
  type: "InnerProduct"
  bottom: "anchor/1/pool3"
  top: "anchor/1/ip1"
  param {
    name: "/0/ip1"
    lr_mult: 1
    decay_mult: 1
  }
  param {
    name: "/0/ip1_b"
    lr_mult: 0
    decay_mult: 0
  }
  inner_product_param {
    num_output: 512
    weight_filler {
      type: "gaussian"
      std: 0.01
    }
    bias_filler {
      type: "constant"
      value: 0
    }
  }
}
layer {
  name: "anchor/1/norm"
  type: "Normalization"
  bottom: "anchor/1/ip1"
  top: "anchor/1/feat"
}
layer {
  name: "anchor/2/ip1"
  type: "InnerProduct"
  bottom: "anchor/2/pool3"
  top: "anchor/2/ip1"
  param {
    name: "/0/ip1"
    lr_mult: 1
    decay_mult: 1
  }
  param {
    name: "/0/ip1_b"
    lr_mult: 0
    decay_mult: 0
  }
  inner_product_param {
    num_output: 512
    weight_filler {
      type: "gaussian"
      std: 0.01
    }
    bias_filler {
      type: "constant"
      value: 0
    }
  }
}
layer {
  name: "anchor/2/norm"
  type: "Normalization"
  bottom: "anchor/2/ip1"
  top: "anchor/2/feat"
}
layer {
  name: "concat"
  type: "Concat"
  bottom: "anchor/0/feat"
  bottom: "anchor/1/feat"
  bottom: "anchor/2/feat"
  top: "anchor/feat"
  concat_param {
    axis: 1
  }
}
layer {
  name: "split"
  type: "Python"
  bottom: "pair/data"
  top: "pair/0/data"
  top: "pair/1/data"
  top: "pair/2/data"
  python_param {
    module: "layer"
    layer: "SplitLayer"
    param_str: "3parts"
    share_in_parallel: true
  }
}
layer {
  name: "pair/0/conv1"
  type: "Convolution"
  bottom: "pair/0/data"
  top: "pair/0/conv1"
  param {
    name: "/conv1"
    lr_mult: 1
    decay_mult: 0
  }
  param {
    name: "/conv1_b"
    lr_mult: 1
    decay_mult: 0
  }
  convolution_param {
    num_output: 64
    kernel_size: 5
    stride: 2
    weight_filler {
      type: "gaussian"
      std: 0.01
    }
    bias_filler {
      type: "constant"
      value: 0
    }
  }
}
layer {
  name: "pair/0/relu1"
  type: "ReLU"
  bottom: "pair/0/conv1"
  top: "pair/0/conv1"
}
layer {
  name: "pair/0/pool1"
  type: "Pooling"
  bottom: "pair/0/conv1"
  top: "pair/0/pool1"
  pooling_param {
    pool: MAX
    kernel_size: 2
    stride: 2
  }
}
layer {
  name: "pair/1/conv1"
  type: "Convolution"
  bottom: "pair/1/data"
  top: "pair/1/conv1"
  param {
    name: "/conv1"
    lr_mult: 1
    decay_mult: 0
  }
  param {
    name: "/conv1_b"
    lr_mult: 1
    decay_mult: 0
  }
  convolution_param {
    num_output: 64
    kernel_size: 5
    stride: 2
    weight_filler {
      type: "gaussian"
      std: 0.01
    }
    bias_filler {
      type: "constant"
      value: 0
    }
  }
}
layer {
  name: "pair/1/relu1"
  type: "ReLU"
  bottom: "pair/1/conv1"
  top: "pair/1/conv1"
}
layer {
  name: "pair/1/pool1"
  type: "Pooling"
  bottom: "pair/1/conv1"
  top: "pair/1/pool1"
  pooling_param {
    pool: MAX
    kernel_size: 2
    stride: 2
  }
}
layer {
  name: "pair/2/conv1"
  type: "Convolution"
  bottom: "pair/2/data"
  top: "pair/2/conv1"
  param {
    name: "/conv1"
    lr_mult: 1
    decay_mult: 0
  }
  param {
    name: "/conv1_b"
    lr_mult: 1
    decay_mult: 0
  }
  convolution_param {
    num_output: 64
    kernel_size: 5
    stride: 2
    weight_filler {
      type: "gaussian"
      std: 0.01
    }
    bias_filler {
      type: "constant"
      value: 0
    }
  }
}
layer {
  name: "pair/2/relu1"
  type: "ReLU"
  bottom: "pair/2/conv1"
  top: "pair/2/conv1"
}
layer {
  name: "pair/2/pool1"
  type: "Pooling"
  bottom: "pair/2/conv1"
  top: "pair/2/pool1"
  pooling_param {
    pool: MAX
    kernel_size: 2
    stride: 2
  }
}
layer {
  name: "pair/0/conv2"
  type: "Convolution"
  bottom: "pair/0/pool1"
  top: "pair/0/conv2"
  param {
    name: "/0/conv2"
    lr_mult: 1
    decay_mult: 0
  }
  param {
    name: "/0/conv2_b"
    lr_mult: 1
    decay_mult: 0
  }
  convolution_param {
    num_output: 64
    kernel_size: 3
    stride: 1
    weight_filler {
      type: "gaussian"
      std: 0.01
    }
    bias_filler {
      type: "constant"
      value: 0
    }
  }
}
layer {
  name: "pair/0/relu2"
  type: "ReLU"
  bottom: "pair/0/conv2"
  top: "pair/0/conv2"
}
layer {
  name: "pair/0/pool2"
  type: "Pooling"
  bottom: "pair/0/conv2"
  top: "pair/0/pool2"
  pooling_param {
    pool: MAX
    kernel_size: 2
    stride: 2
  }
}
layer {
  name: "pair/1/conv2"
  type: "Convolution"
  bottom: "pair/1/pool1"
  top: "pair/1/conv2"
  param {
    name: "/1/conv2"
    lr_mult: 1
    decay_mult: 0
  }
  param {
    name: "/1/conv2_b"
    lr_mult: 1
    decay_mult: 0
  }
  convolution_param {
    num_output: 64
    kernel_size: 3
    stride: 1
    weight_filler {
      type: "gaussian"
      std: 0.01
    }
    bias_filler {
      type: "constant"
      value: 0
    }
  }
}
layer {
  name: "pair/1/relu2"
  type: "ReLU"
  bottom: "pair/1/conv2"
  top: "pair/1/conv2"
}
layer {
  name: "pair/1/pool2"
  type: "Pooling"
  bottom: "pair/1/conv2"
  top: "pair/1/pool2"
  pooling_param {
    pool: MAX
    kernel_size: 2
    stride: 2
  }
}
layer {
  name: "pair/2/conv2"
  type: "Convolution"
  bottom: "pair/2/pool1"
  top: "pair/2/conv2"
  param {
    name: "/2/conv2"
    lr_mult: 1
    decay_mult: 0
  }
  param {
    name: "/2/conv2_b"
    lr_mult: 1
    decay_mult: 0
  }
  convolution_param {
    num_output: 64
    kernel_size: 3
    stride: 1
    weight_filler {
      type: "gaussian"
      std: 0.01
    }
    bias_filler {
      type: "constant"
      value: 0
    }
  }
}
layer {
  name: "pair/2/relu2"
  type: "ReLU"
  bottom: "pair/2/conv2"
  top: "pair/2/conv2"
}
layer {
  name: "pair/2/pool2"
  type: "Pooling"
  bottom: "pair/2/conv2"
  top: "pair/2/pool2"
  pooling_param {
    pool: MAX
    kernel_size: 2
    stride: 2
  }
}
layer {
  name: "pair/0/conv3"
  type: "Convolution"
  bottom: "pair/0/pool2"
  top: "pair/0/conv3"
  param {
    name: "/0/conv3"
    lr_mult: 1
    decay_mult: 0
  }
  param {
    name: "/0/conv3_b"
    lr_mult: 1
    decay_mult: 0
  }
  convolution_param {
    num_output: 64
    kernel_size: 5
    stride: 2
    weight_filler {
      type: "gaussian"
      std: 0.01
    }
    bias_filler {
      type: "constant"
      value: 0
    }
  }
}
layer {
  name: "pair/0/relu3"
  type: "ReLU"
  bottom: "pair/0/conv3"
  top: "pair/0/conv3"
}
layer {
  name: "pair/0/pool3"
  type: "Pooling"
  bottom: "pair/0/conv3"
  top: "pair/0/pool3"
  pooling_param {
    pool: MAX
    kernel_size: 2
    stride: 2
  }
}
layer {
  name: "pair/1/conv3"
  type: "Convolution"
  bottom: "pair/1/pool2"
  top: "pair/1/conv3"
  param {
    name: "/1/conv3"
    lr_mult: 1
    decay_mult: 0
  }
  param {
    name: "/1/conv3_b"
    lr_mult: 1
    decay_mult: 0
  }
  convolution_param {
    num_output: 64
    kernel_size: 5
    stride: 2
    weight_filler {
      type: "gaussian"
      std: 0.01
    }
    bias_filler {
      type: "constant"
      value: 0
    }
  }
}
layer {
  name: "pair/1/relu3"
  type: "ReLU"
  bottom: "pair/1/conv3"
  top: "pair/1/conv3"
}
layer {
  name: "pair/1/pool3"
  type: "Pooling"
  bottom: "pair/1/conv3"
  top: "pair/1/pool3"
  pooling_param {
    pool: MAX
    kernel_size: 2
    stride: 2
  }
}
layer {
  name: "pair/2/conv3"
  type: "Convolution"
  bottom: "pair/2/pool2"
  top: "pair/2/conv3"
  param {
    name: "/2/conv3"
    lr_mult: 1
    decay_mult: 0
  }
  param {
    name: "/2/conv3_b"
    lr_mult: 1
    decay_mult: 0
  }
  convolution_param {
    num_output: 64
    kernel_size: 5
    stride: 2
    weight_filler {
      type: "gaussian"
      std: 0.01
    }
    bias_filler {
      type: "constant"
      value: 0
    }
  }
}
layer {
  name: "pair/2/relu3"
  type: "ReLU"
  bottom: "pair/2/conv3"
  top: "pair/2/conv3"
}
layer {
  name: "pair/2/pool3"
  type: "Pooling"
  bottom: "pair/2/conv3"
  top: "pair/2/pool3"
  pooling_param {
    pool: MAX
    kernel_size: 2
    stride: 2
  }
}
layer {
  name: "pair/0/ip1"
  type: "InnerProduct"
  bottom: "pair/0/pool3"
  top: "pair/0/ip1"
  param {
    name: "/0/ip1"
    lr_mult: 1
    decay_mult: 1
  }
  param {
    name: "/0/ip1_b"
    lr_mult: 0
    decay_mult: 0
  }
  inner_product_param {
    num_output: 512
    weight_filler {
      type: "gaussian"
      std: 0.01
    }
    bias_filler {
      type: "constant"
      value: 0
    }
  }
}
layer {
  name: "pair/0/norm"
  type: "Normalization"
  bottom: "pair/0/ip1"
  top: "pair/0/feat"
}
layer {
  name: "pair/1/ip1"
  type: "InnerProduct"
  bottom: "pair/1/pool3"
  top: "pair/1/ip1"
  param {
    name: "/0/ip1"
    lr_mult: 1
    decay_mult: 1
  }
  param {
    name: "/0/ip1_b"
    lr_mult: 0
    decay_mult: 0
  }
  inner_product_param {
    num_output: 512
    weight_filler {
      type: "gaussian"
      std: 0.01
    }
    bias_filler {
      type: "constant"
      value: 0
    }
  }
}
layer {
  name: "pair/1/norm"
  type: "Normalization"
  bottom: "pair/1/ip1"
  top: "pair/1/feat"
}
layer {
  name: "pair/2/ip1"
  type: "InnerProduct"
  bottom: "pair/2/pool3"
  top: "pair/2/ip1"
  param {
    name: "/0/ip1"
    lr_mult: 1
    decay_mult: 1
  }
  param {
    name: "/0/ip1_b"
    lr_mult: 0
    decay_mult: 0
  }
  inner_product_param {
    num_output: 512
    weight_filler {
      type: "gaussian"
      std: 0.01
    }
    bias_filler {
      type: "constant"
      value: 0
    }
  }
}
layer {
  name: "pair/2/norm"
  type: "Normalization"
  bottom: "pair/2/ip1"
  top: "pair/2/feat"
}
layer {
  name: "concat"
  type: "Concat"
  bottom: "pair/0/feat"
  bottom: "pair/1/feat"
  bottom: "pair/2/feat"
  top: "pair/feat"
  concat_param {
    axis: 1
  }
}
layer {
  name: "loss"
  type: "ContrastiveLoss"
  bottom: "anchor/feat"
  bottom: "pair/feat"
  bottom: "label"
  top: "loss"
  top: "dist_sim"
  top: "dist_dif"
  loss_weight: 1
  loss_weight: 0
  loss_weight: 0
  contrastive_loss_param {
    margin: 2
  }
}
I0512 21:30:21.745591 29057 layer_factory.hpp:77] Creating layer data
I0512 21:30:22.896173 29057 net.cpp:91] Creating Layer data
I0512 21:30:22.896255 29057 net.cpp:399] data -> data
I0512 21:30:22.896309 29057 net.cpp:399] data -> label
I0512 21:30:27.999215 29057 net.cpp:141] Setting up data
I0512 21:30:27.999303 29057 net.cpp:148] Top shape: 128 6 240 120 (22118400)
I0512 21:30:27.999323 29057 net.cpp:148] Top shape: 128 1 (128)
I0512 21:30:27.999332 29057 net.cpp:156] Memory required for data: 88474112
I0512 21:30:27.999356 29057 layer_factory.hpp:77] Creating layer slice
I0512 21:30:27.999402 29057 net.cpp:91] Creating Layer slice
I0512 21:30:27.999425 29057 net.cpp:425] slice <- data
I0512 21:30:27.999460 29057 net.cpp:399] slice -> anchor/data
I0512 21:30:27.999495 29057 net.cpp:399] slice -> pair/data
I0512 21:30:27.999548 29057 net.cpp:141] Setting up slice
I0512 21:30:27.999572 29057 net.cpp:148] Top shape: 128 3 240 120 (11059200)
I0512 21:30:27.999582 29057 net.cpp:148] Top shape: 128 3 240 120 (11059200)
I0512 21:30:27.999588 29057 net.cpp:156] Memory required for data: 176947712
I0512 21:30:27.999595 29057 layer_factory.hpp:77] Creating layer split
I0512 21:30:27.999709 29057 net.cpp:91] Creating Layer split
I0512 21:30:27.999723 29057 net.cpp:425] split <- anchor/data
I0512 21:30:27.999735 29057 net.cpp:399] split -> anchor/0/data
I0512 21:30:27.999748 29057 net.cpp:399] split -> anchor/1/data
I0512 21:30:27.999763 29057 net.cpp:399] split -> anchor/2/data
I0512 21:30:28.000252 29057 net.cpp:141] Setting up split
I0512 21:30:28.000273 29057 net.cpp:148] Top shape: 128 3 120 120 (5529600)
I0512 21:30:28.000283 29057 net.cpp:148] Top shape: 128 3 120 120 (5529600)
I0512 21:30:28.000293 29057 net.cpp:148] Top shape: 128 3 120 120 (5529600)
I0512 21:30:28.000300 29057 net.cpp:156] Memory required for data: 243302912
I0512 21:30:28.000308 29057 layer_factory.hpp:77] Creating layer anchor/0/conv1
I0512 21:30:28.000350 29057 net.cpp:91] Creating Layer anchor/0/conv1
I0512 21:30:28.000361 29057 net.cpp:425] anchor/0/conv1 <- anchor/0/data
I0512 21:30:28.000373 29057 net.cpp:399] anchor/0/conv1 -> anchor/0/conv1
I0512 21:30:28.205960 29057 net.cpp:141] Setting up anchor/0/conv1
I0512 21:30:28.206039 29057 net.cpp:148] Top shape: 128 64 58 58 (27557888)
I0512 21:30:28.206063 29057 net.cpp:156] Memory required for data: 353534464
I0512 21:30:28.206095 29057 layer_factory.hpp:77] Creating layer anchor/0/relu1
I0512 21:30:28.206132 29057 net.cpp:91] Creating Layer anchor/0/relu1
I0512 21:30:28.206145 29057 net.cpp:425] anchor/0/relu1 <- anchor/0/conv1
I0512 21:30:28.206157 29057 net.cpp:386] anchor/0/relu1 -> anchor/0/conv1 (in-place)
I0512 21:30:28.206449 29057 net.cpp:141] Setting up anchor/0/relu1
I0512 21:30:28.206467 29057 net.cpp:148] Top shape: 128 64 58 58 (27557888)
I0512 21:30:28.206476 29057 net.cpp:156] Memory required for data: 463766016
I0512 21:30:28.206485 29057 layer_factory.hpp:77] Creating layer anchor/0/pool1
I0512 21:30:28.206499 29057 net.cpp:91] Creating Layer anchor/0/pool1
I0512 21:30:28.206508 29057 net.cpp:425] anchor/0/pool1 <- anchor/0/conv1
I0512 21:30:28.206519 29057 net.cpp:399] anchor/0/pool1 -> anchor/0/pool1
I0512 21:30:28.206584 29057 net.cpp:141] Setting up anchor/0/pool1
I0512 21:30:28.206600 29057 net.cpp:148] Top shape: 128 64 29 29 (6889472)
I0512 21:30:28.206609 29057 net.cpp:156] Memory required for data: 491323904
I0512 21:30:28.206616 29057 layer_factory.hpp:77] Creating layer anchor/1/conv1
I0512 21:30:28.206645 29057 net.cpp:91] Creating Layer anchor/1/conv1
I0512 21:30:28.206655 29057 net.cpp:425] anchor/1/conv1 <- anchor/1/data
I0512 21:30:28.206666 29057 net.cpp:399] anchor/1/conv1 -> anchor/1/conv1
I0512 21:30:28.207615 29057 net.cpp:141] Setting up anchor/1/conv1
I0512 21:30:28.207636 29057 net.cpp:148] Top shape: 128 64 58 58 (27557888)
I0512 21:30:28.207644 29057 net.cpp:156] Memory required for data: 601555456
I0512 21:30:28.207654 29057 net.cpp:484] Sharing parameters '/conv1' owned by layer 'anchor/0/conv1', param index 0
I0512 21:30:28.207664 29057 net.cpp:484] Sharing parameters '/conv1_b' owned by layer 'anchor/0/conv1', param index 1
I0512 21:30:28.207672 29057 layer_factory.hpp:77] Creating layer anchor/1/relu1
I0512 21:30:28.207692 29057 net.cpp:91] Creating Layer anchor/1/relu1
I0512 21:30:28.207702 29057 net.cpp:425] anchor/1/relu1 <- anchor/1/conv1
I0512 21:30:28.207712 29057 net.cpp:386] anchor/1/relu1 -> anchor/1/conv1 (in-place)
I0512 21:30:28.207988 29057 net.cpp:141] Setting up anchor/1/relu1
I0512 21:30:28.208006 29057 net.cpp:148] Top shape: 128 64 58 58 (27557888)
I0512 21:30:28.208014 29057 net.cpp:156] Memory required for data: 711787008
I0512 21:30:28.208030 29057 layer_factory.hpp:77] Creating layer anchor/1/pool1
I0512 21:30:28.208052 29057 net.cpp:91] Creating Layer anchor/1/pool1
I0512 21:30:28.208062 29057 net.cpp:425] anchor/1/pool1 <- anchor/1/conv1
I0512 21:30:28.208073 29057 net.cpp:399] anchor/1/pool1 -> anchor/1/pool1
I0512 21:30:28.208120 29057 net.cpp:141] Setting up anchor/1/pool1
I0512 21:30:28.208134 29057 net.cpp:148] Top shape: 128 64 29 29 (6889472)
I0512 21:30:28.208142 29057 net.cpp:156] Memory required for data: 739344896
I0512 21:30:28.208149 29057 layer_factory.hpp:77] Creating layer anchor/2/conv1
I0512 21:30:28.208163 29057 net.cpp:91] Creating Layer anchor/2/conv1
I0512 21:30:28.208173 29057 net.cpp:425] anchor/2/conv1 <- anchor/2/data
I0512 21:30:28.208184 29057 net.cpp:399] anchor/2/conv1 -> anchor/2/conv1
I0512 21:30:28.209249 29057 net.cpp:141] Setting up anchor/2/conv1
I0512 21:30:28.209270 29057 net.cpp:148] Top shape: 128 64 58 58 (27557888)
I0512 21:30:28.209280 29057 net.cpp:156] Memory required for data: 849576448
I0512 21:30:28.209290 29057 net.cpp:484] Sharing parameters '/conv1' owned by layer 'anchor/0/conv1', param index 0
I0512 21:30:28.209300 29057 net.cpp:484] Sharing parameters '/conv1_b' owned by layer 'anchor/0/conv1', param index 1
I0512 21:30:28.209307 29057 layer_factory.hpp:77] Creating layer anchor/2/relu1
I0512 21:30:28.209319 29057 net.cpp:91] Creating Layer anchor/2/relu1
I0512 21:30:28.209328 29057 net.cpp:425] anchor/2/relu1 <- anchor/2/conv1
I0512 21:30:28.209337 29057 net.cpp:386] anchor/2/relu1 -> anchor/2/conv1 (in-place)
I0512 21:30:28.209502 29057 net.cpp:141] Setting up anchor/2/relu1
I0512 21:30:28.209525 29057 net.cpp:148] Top shape: 128 64 58 58 (27557888)
I0512 21:30:28.209542 29057 net.cpp:156] Memory required for data: 959808000
I0512 21:30:28.209549 29057 layer_factory.hpp:77] Creating layer anchor/2/pool1
I0512 21:30:28.209568 29057 net.cpp:91] Creating Layer anchor/2/pool1
I0512 21:30:28.209578 29057 net.cpp:425] anchor/2/pool1 <- anchor/2/conv1
I0512 21:30:28.209589 29057 net.cpp:399] anchor/2/pool1 -> anchor/2/pool1
I0512 21:30:28.209636 29057 net.cpp:141] Setting up anchor/2/pool1
I0512 21:30:28.209650 29057 net.cpp:148] Top shape: 128 64 29 29 (6889472)
I0512 21:30:28.209657 29057 net.cpp:156] Memory required for data: 987365888
I0512 21:30:28.209666 29057 layer_factory.hpp:77] Creating layer anchor/0/conv2
I0512 21:30:28.209681 29057 net.cpp:91] Creating Layer anchor/0/conv2
I0512 21:30:28.209689 29057 net.cpp:425] anchor/0/conv2 <- anchor/0/pool1
I0512 21:30:28.209700 29057 net.cpp:399] anchor/0/conv2 -> anchor/0/conv2
I0512 21:30:28.212909 29057 net.cpp:141] Setting up anchor/0/conv2
I0512 21:30:28.212930 29057 net.cpp:148] Top shape: 128 64 27 27 (5971968)
I0512 21:30:28.212939 29057 net.cpp:156] Memory required for data: 1011253760
I0512 21:30:28.212950 29057 layer_factory.hpp:77] Creating layer anchor/0/relu2
I0512 21:30:28.212962 29057 net.cpp:91] Creating Layer anchor/0/relu2
I0512 21:30:28.212980 29057 net.cpp:425] anchor/0/relu2 <- anchor/0/conv2
I0512 21:30:28.212992 29057 net.cpp:386] anchor/0/relu2 -> anchor/0/conv2 (in-place)
I0512 21:30:28.213294 29057 net.cpp:141] Setting up anchor/0/relu2
I0512 21:30:28.213311 29057 net.cpp:148] Top shape: 128 64 27 27 (5971968)
I0512 21:30:28.213320 29057 net.cpp:156] Memory required for data: 1035141632
I0512 21:30:28.213335 29057 layer_factory.hpp:77] Creating layer anchor/0/pool2
I0512 21:30:28.213354 29057 net.cpp:91] Creating Layer anchor/0/pool2
I0512 21:30:28.213364 29057 net.cpp:425] anchor/0/pool2 <- anchor/0/conv2
I0512 21:30:28.213376 29057 net.cpp:399] anchor/0/pool2 -> anchor/0/pool2
I0512 21:30:28.213428 29057 net.cpp:141] Setting up anchor/0/pool2
I0512 21:30:28.213440 29057 net.cpp:148] Top shape: 128 64 14 14 (1605632)
I0512 21:30:28.213449 29057 net.cpp:156] Memory required for data: 1041564160
I0512 21:30:28.213455 29057 layer_factory.hpp:77] Creating layer anchor/1/conv2
I0512 21:30:28.213472 29057 net.cpp:91] Creating Layer anchor/1/conv2
I0512 21:30:28.213481 29057 net.cpp:425] anchor/1/conv2 <- anchor/1/pool1
I0512 21:30:28.213495 29057 net.cpp:399] anchor/1/conv2 -> anchor/1/conv2
I0512 21:30:28.215493 29057 net.cpp:141] Setting up anchor/1/conv2
I0512 21:30:28.215513 29057 net.cpp:148] Top shape: 128 64 27 27 (5971968)
I0512 21:30:28.215523 29057 net.cpp:156] Memory required for data: 1065452032
I0512 21:30:28.215536 29057 layer_factory.hpp:77] Creating layer anchor/1/relu2
I0512 21:30:28.215550 29057 net.cpp:91] Creating Layer anchor/1/relu2
I0512 21:30:28.215559 29057 net.cpp:425] anchor/1/relu2 <- anchor/1/conv2
I0512 21:30:28.215569 29057 net.cpp:386] anchor/1/relu2 -> anchor/1/conv2 (in-place)
I0512 21:30:28.215874 29057 net.cpp:141] Setting up anchor/1/relu2
I0512 21:30:28.215893 29057 net.cpp:148] Top shape: 128 64 27 27 (5971968)
I0512 21:30:28.215900 29057 net.cpp:156] Memory required for data: 1089339904
I0512 21:30:28.215909 29057 layer_factory.hpp:77] Creating layer anchor/1/pool2
I0512 21:30:28.215927 29057 net.cpp:91] Creating Layer anchor/1/pool2
I0512 21:30:28.215937 29057 net.cpp:425] anchor/1/pool2 <- anchor/1/conv2
I0512 21:30:28.215950 29057 net.cpp:399] anchor/1/pool2 -> anchor/1/pool2
I0512 21:30:28.216004 29057 net.cpp:141] Setting up anchor/1/pool2
I0512 21:30:28.216019 29057 net.cpp:148] Top shape: 128 64 14 14 (1605632)
I0512 21:30:28.216027 29057 net.cpp:156] Memory required for data: 1095762432
I0512 21:30:28.216034 29057 layer_factory.hpp:77] Creating layer anchor/2/conv2
I0512 21:30:28.216054 29057 net.cpp:91] Creating Layer anchor/2/conv2
I0512 21:30:28.216064 29057 net.cpp:425] anchor/2/conv2 <- anchor/2/pool1
I0512 21:30:28.216075 29057 net.cpp:399] anchor/2/conv2 -> anchor/2/conv2
I0512 21:30:28.218206 29057 net.cpp:141] Setting up anchor/2/conv2
I0512 21:30:28.218236 29057 net.cpp:148] Top shape: 128 64 27 27 (5971968)
I0512 21:30:28.218245 29057 net.cpp:156] Memory required for data: 1119650304
I0512 21:30:28.218256 29057 layer_factory.hpp:77] Creating layer anchor/2/relu2
I0512 21:30:28.218269 29057 net.cpp:91] Creating Layer anchor/2/relu2
I0512 21:30:28.218278 29057 net.cpp:425] anchor/2/relu2 <- anchor/2/conv2
I0512 21:30:28.218291 29057 net.cpp:386] anchor/2/relu2 -> anchor/2/conv2 (in-place)
I0512 21:30:28.218587 29057 net.cpp:141] Setting up anchor/2/relu2
I0512 21:30:28.218606 29057 net.cpp:148] Top shape: 128 64 27 27 (5971968)
I0512 21:30:28.218614 29057 net.cpp:156] Memory required for data: 1143538176
I0512 21:30:28.218622 29057 layer_factory.hpp:77] Creating layer anchor/2/pool2
I0512 21:30:28.218641 29057 net.cpp:91] Creating Layer anchor/2/pool2
I0512 21:30:28.218650 29057 net.cpp:425] anchor/2/pool2 <- anchor/2/conv2
I0512 21:30:28.218662 29057 net.cpp:399] anchor/2/pool2 -> anchor/2/pool2
I0512 21:30:28.218715 29057 net.cpp:141] Setting up anchor/2/pool2
I0512 21:30:28.218732 29057 net.cpp:148] Top shape: 128 64 14 14 (1605632)
I0512 21:30:28.218739 29057 net.cpp:156] Memory required for data: 1149960704
I0512 21:30:28.218755 29057 layer_factory.hpp:77] Creating layer anchor/0/conv3
I0512 21:30:28.218771 29057 net.cpp:91] Creating Layer anchor/0/conv3
I0512 21:30:28.218781 29057 net.cpp:425] anchor/0/conv3 <- anchor/0/pool2
I0512 21:30:28.218792 29057 net.cpp:399] anchor/0/conv3 -> anchor/0/conv3
I0512 21:30:28.223523 29057 net.cpp:141] Setting up anchor/0/conv3
I0512 21:30:28.223544 29057 net.cpp:148] Top shape: 128 64 5 5 (204800)
I0512 21:30:28.223553 29057 net.cpp:156] Memory required for data: 1150779904
I0512 21:30:28.223565 29057 layer_factory.hpp:77] Creating layer anchor/0/relu3
I0512 21:30:28.223577 29057 net.cpp:91] Creating Layer anchor/0/relu3
I0512 21:30:28.223584 29057 net.cpp:425] anchor/0/relu3 <- anchor/0/conv3
I0512 21:30:28.223597 29057 net.cpp:386] anchor/0/relu3 -> anchor/0/conv3 (in-place)
I0512 21:30:28.223961 29057 net.cpp:141] Setting up anchor/0/relu3
I0512 21:30:28.223979 29057 net.cpp:148] Top shape: 128 64 5 5 (204800)
I0512 21:30:28.223987 29057 net.cpp:156] Memory required for data: 1151599104
I0512 21:30:28.223995 29057 layer_factory.hpp:77] Creating layer anchor/0/pool3
I0512 21:30:28.224016 29057 net.cpp:91] Creating Layer anchor/0/pool3
I0512 21:30:28.224025 29057 net.cpp:425] anchor/0/pool3 <- anchor/0/conv3
I0512 21:30:28.224036 29057 net.cpp:399] anchor/0/pool3 -> anchor/0/pool3
I0512 21:30:28.224088 29057 net.cpp:141] Setting up anchor/0/pool3
I0512 21:30:28.224103 29057 net.cpp:148] Top shape: 128 64 3 3 (73728)
I0512 21:30:28.224110 29057 net.cpp:156] Memory required for data: 1151894016
I0512 21:30:28.224117 29057 layer_factory.hpp:77] Creating layer anchor/1/conv3
I0512 21:30:28.224135 29057 net.cpp:91] Creating Layer anchor/1/conv3
I0512 21:30:28.224145 29057 net.cpp:425] anchor/1/conv3 <- anchor/1/pool2
I0512 21:30:28.224159 29057 net.cpp:399] anchor/1/conv3 -> anchor/1/conv3
I0512 21:30:28.228116 29057 net.cpp:141] Setting up anchor/1/conv3
I0512 21:30:28.228138 29057 net.cpp:148] Top shape: 128 64 5 5 (204800)
I0512 21:30:28.228147 29057 net.cpp:156] Memory required for data: 1152713216
I0512 21:30:28.228157 29057 layer_factory.hpp:77] Creating layer anchor/1/relu3
I0512 21:30:28.228170 29057 net.cpp:91] Creating Layer anchor/1/relu3
I0512 21:30:28.228179 29057 net.cpp:425] anchor/1/relu3 <- anchor/1/conv3
I0512 21:30:28.228189 29057 net.cpp:386] anchor/1/relu3 -> anchor/1/conv3 (in-place)
I0512 21:30:28.228490 29057 net.cpp:141] Setting up anchor/1/relu3
I0512 21:30:28.228508 29057 net.cpp:148] Top shape: 128 64 5 5 (204800)
I0512 21:30:28.228516 29057 net.cpp:156] Memory required for data: 1153532416
I0512 21:30:28.228524 29057 layer_factory.hpp:77] Creating layer anchor/1/pool3
I0512 21:30:28.228536 29057 net.cpp:91] Creating Layer anchor/1/pool3
I0512 21:30:28.228545 29057 net.cpp:425] anchor/1/pool3 <- anchor/1/conv3
I0512 21:30:28.228561 29057 net.cpp:399] anchor/1/pool3 -> anchor/1/pool3
I0512 21:30:28.228624 29057 net.cpp:141] Setting up anchor/1/pool3
I0512 21:30:28.228639 29057 net.cpp:148] Top shape: 128 64 3 3 (73728)
I0512 21:30:28.228646 29057 net.cpp:156] Memory required for data: 1153827328
I0512 21:30:28.228662 29057 layer_factory.hpp:77] Creating layer anchor/2/conv3
I0512 21:30:28.228680 29057 net.cpp:91] Creating Layer anchor/2/conv3
I0512 21:30:28.228690 29057 net.cpp:425] anchor/2/conv3 <- anchor/2/pool2
I0512 21:30:28.228704 29057 net.cpp:399] anchor/2/conv3 -> anchor/2/conv3
I0512 21:30:28.233348 29057 net.cpp:141] Setting up anchor/2/conv3
I0512 21:30:28.233372 29057 net.cpp:148] Top shape: 128 64 5 5 (204800)
I0512 21:30:28.233381 29057 net.cpp:156] Memory required for data: 1154646528
I0512 21:30:28.233397 29057 layer_factory.hpp:77] Creating layer anchor/2/relu3
I0512 21:30:28.233407 29057 net.cpp:91] Creating Layer anchor/2/relu3
I0512 21:30:28.233418 29057 net.cpp:425] anchor/2/relu3 <- anchor/2/conv3
I0512 21:30:28.233428 29057 net.cpp:386] anchor/2/relu3 -> anchor/2/conv3 (in-place)
I0512 21:30:28.233610 29057 net.cpp:141] Setting up anchor/2/relu3
I0512 21:30:28.233628 29057 net.cpp:148] Top shape: 128 64 5 5 (204800)
I0512 21:30:28.233635 29057 net.cpp:156] Memory required for data: 1155465728
I0512 21:30:28.233642 29057 layer_factory.hpp:77] Creating layer anchor/2/pool3
I0512 21:30:28.233664 29057 net.cpp:91] Creating Layer anchor/2/pool3
I0512 21:30:28.233674 29057 net.cpp:425] anchor/2/pool3 <- anchor/2/conv3
I0512 21:30:28.233683 29057 net.cpp:399] anchor/2/pool3 -> anchor/2/pool3
I0512 21:30:28.233736 29057 net.cpp:141] Setting up anchor/2/pool3
I0512 21:30:28.233752 29057 net.cpp:148] Top shape: 128 64 3 3 (73728)
I0512 21:30:28.233758 29057 net.cpp:156] Memory required for data: 1155760640
I0512 21:30:28.233765 29057 layer_factory.hpp:77] Creating layer anchor/0/ip1
I0512 21:30:28.233789 29057 net.cpp:91] Creating Layer anchor/0/ip1
I0512 21:30:28.233799 29057 net.cpp:425] anchor/0/ip1 <- anchor/0/pool3
I0512 21:30:28.233810 29057 net.cpp:399] anchor/0/ip1 -> anchor/0/ip1
I0512 21:30:28.243266 29057 net.cpp:141] Setting up anchor/0/ip1
I0512 21:30:28.243288 29057 net.cpp:148] Top shape: 128 512 (65536)
I0512 21:30:28.243295 29057 net.cpp:156] Memory required for data: 1156022784
I0512 21:30:28.243307 29057 layer_factory.hpp:77] Creating layer anchor/0/norm
I0512 21:30:28.243321 29057 net.cpp:91] Creating Layer anchor/0/norm
I0512 21:30:28.243330 29057 net.cpp:425] anchor/0/norm <- anchor/0/ip1
I0512 21:30:28.243342 29057 net.cpp:399] anchor/0/norm -> anchor/0/feat
I0512 21:30:28.243389 29057 net.cpp:141] Setting up anchor/0/norm
I0512 21:30:28.243403 29057 net.cpp:148] Top shape: 128 512 (65536)
I0512 21:30:28.243410 29057 net.cpp:156] Memory required for data: 1156284928
I0512 21:30:28.243418 29057 layer_factory.hpp:77] Creating layer anchor/1/ip1
I0512 21:30:28.243438 29057 net.cpp:91] Creating Layer anchor/1/ip1
I0512 21:30:28.243448 29057 net.cpp:425] anchor/1/ip1 <- anchor/1/pool3
I0512 21:30:28.243463 29057 net.cpp:399] anchor/1/ip1 -> anchor/1/ip1
I0512 21:30:28.252887 29057 net.cpp:141] Setting up anchor/1/ip1
I0512 21:30:28.252907 29057 net.cpp:148] Top shape: 128 512 (65536)
I0512 21:30:28.252915 29057 net.cpp:156] Memory required for data: 1156547072
I0512 21:30:28.252923 29057 net.cpp:484] Sharing parameters '/0/ip1' owned by layer 'anchor/0/ip1', param index 0
I0512 21:30:28.252933 29057 net.cpp:484] Sharing parameters '/0/ip1_b' owned by layer 'anchor/0/ip1', param index 1
I0512 21:30:28.252940 29057 layer_factory.hpp:77] Creating layer anchor/1/norm
I0512 21:30:28.252954 29057 net.cpp:91] Creating Layer anchor/1/norm
I0512 21:30:28.252961 29057 net.cpp:425] anchor/1/norm <- anchor/1/ip1
I0512 21:30:28.252990 29057 net.cpp:399] anchor/1/norm -> anchor/1/feat
I0512 21:30:28.253036 29057 net.cpp:141] Setting up anchor/1/norm
I0512 21:30:28.253051 29057 net.cpp:148] Top shape: 128 512 (65536)
I0512 21:30:28.253057 29057 net.cpp:156] Memory required for data: 1156809216
I0512 21:30:28.253070 29057 layer_factory.hpp:77] Creating layer anchor/2/ip1
I0512 21:30:28.253103 29057 net.cpp:91] Creating Layer anchor/2/ip1
I0512 21:30:28.253113 29057 net.cpp:425] anchor/2/ip1 <- anchor/2/pool3
I0512 21:30:28.253123 29057 net.cpp:399] anchor/2/ip1 -> anchor/2/ip1
I0512 21:30:28.262539 29057 net.cpp:141] Setting up anchor/2/ip1
I0512 21:30:28.262559 29057 net.cpp:148] Top shape: 128 512 (65536)
I0512 21:30:28.262567 29057 net.cpp:156] Memory required for data: 1157071360
I0512 21:30:28.262575 29057 net.cpp:484] Sharing parameters '/0/ip1' owned by layer 'anchor/0/ip1', param index 0
I0512 21:30:28.262584 29057 net.cpp:484] Sharing parameters '/0/ip1_b' owned by layer 'anchor/0/ip1', param index 1
I0512 21:30:28.262593 29057 layer_factory.hpp:77] Creating layer anchor/2/norm
I0512 21:30:28.262603 29057 net.cpp:91] Creating Layer anchor/2/norm
I0512 21:30:28.262610 29057 net.cpp:425] anchor/2/norm <- anchor/2/ip1
I0512 21:30:28.262620 29057 net.cpp:399] anchor/2/norm -> anchor/2/feat
I0512 21:30:28.262666 29057 net.cpp:141] Setting up anchor/2/norm
I0512 21:30:28.262681 29057 net.cpp:148] Top shape: 128 512 (65536)
I0512 21:30:28.262687 29057 net.cpp:156] Memory required for data: 1157333504
I0512 21:30:28.262694 29057 layer_factory.hpp:77] Creating layer concat
I0512 21:30:28.262714 29057 net.cpp:91] Creating Layer concat
I0512 21:30:28.262723 29057 net.cpp:425] concat <- anchor/0/feat
I0512 21:30:28.262732 29057 net.cpp:425] concat <- anchor/1/feat
I0512 21:30:28.262742 29057 net.cpp:425] concat <- anchor/2/feat
I0512 21:30:28.262753 29057 net.cpp:399] concat -> anchor/feat
I0512 21:30:28.262794 29057 net.cpp:141] Setting up concat
I0512 21:30:28.262809 29057 net.cpp:148] Top shape: 128 1536 (196608)
I0512 21:30:28.262815 29057 net.cpp:156] Memory required for data: 1158119936
I0512 21:30:28.262822 29057 layer_factory.hpp:77] Creating layer split
I0512 21:30:28.262912 29057 net.cpp:91] Creating Layer split
I0512 21:30:28.262925 29057 net.cpp:425] split <- pair/data
I0512 21:30:28.262941 29057 net.cpp:399] split -> pair/0/data
I0512 21:30:28.262959 29057 net.cpp:399] split -> pair/1/data
I0512 21:30:28.262971 29057 net.cpp:399] split -> pair/2/data
I0512 21:30:28.263161 29057 net.cpp:141] Setting up split
I0512 21:30:28.263180 29057 net.cpp:148] Top shape: 128 3 120 120 (5529600)
I0512 21:30:28.263188 29057 net.cpp:148] Top shape: 128 3 120 120 (5529600)
I0512 21:30:28.263196 29057 net.cpp:148] Top shape: 128 3 120 120 (5529600)
I0512 21:30:28.263203 29057 net.cpp:156] Memory required for data: 1224475136
I0512 21:30:28.263211 29057 layer_factory.hpp:77] Creating layer pair/0/conv1
I0512 21:30:28.263242 29057 net.cpp:91] Creating Layer pair/0/conv1
I0512 21:30:28.263252 29057 net.cpp:425] pair/0/conv1 <- pair/0/data
I0512 21:30:28.263264 29057 net.cpp:399] pair/0/conv1 -> pair/0/conv1
I0512 21:30:28.264461 29057 net.cpp:141] Setting up pair/0/conv1
I0512 21:30:28.264482 29057 net.cpp:148] Top shape: 128 64 58 58 (27557888)
I0512 21:30:28.264489 29057 net.cpp:156] Memory required for data: 1334706688
I0512 21:30:28.264498 29057 net.cpp:484] Sharing parameters '/conv1' owned by layer 'anchor/0/conv1', param index 0
I0512 21:30:28.264508 29057 net.cpp:484] Sharing parameters '/conv1_b' owned by layer 'anchor/0/conv1', param index 1
I0512 21:30:28.264516 29057 layer_factory.hpp:77] Creating layer pair/0/relu1
I0512 21:30:28.264529 29057 net.cpp:91] Creating Layer pair/0/relu1
I0512 21:30:28.264538 29057 net.cpp:425] pair/0/relu1 <- pair/0/conv1
I0512 21:30:28.264547 29057 net.cpp:386] pair/0/relu1 -> pair/0/conv1 (in-place)
I0512 21:30:28.264853 29057 net.cpp:141] Setting up pair/0/relu1
I0512 21:30:28.264875 29057 net.cpp:148] Top shape: 128 64 58 58 (27557888)
I0512 21:30:28.264883 29057 net.cpp:156] Memory required for data: 1444938240
I0512 21:30:28.264892 29057 layer_factory.hpp:77] Creating layer pair/0/pool1
I0512 21:30:28.264902 29057 net.cpp:91] Creating Layer pair/0/pool1
I0512 21:30:28.264910 29057 net.cpp:425] pair/0/pool1 <- pair/0/conv1
I0512 21:30:28.264924 29057 net.cpp:399] pair/0/pool1 -> pair/0/pool1
I0512 21:30:28.265002 29057 net.cpp:141] Setting up pair/0/pool1
I0512 21:30:28.265029 29057 net.cpp:148] Top shape: 128 64 29 29 (6889472)
I0512 21:30:28.265038 29057 net.cpp:156] Memory required for data: 1472496128
I0512 21:30:28.265045 29057 layer_factory.hpp:77] Creating layer pair/1/conv1
I0512 21:30:28.265070 29057 net.cpp:91] Creating Layer pair/1/conv1
I0512 21:30:28.265081 29057 net.cpp:425] pair/1/conv1 <- pair/1/data
I0512 21:30:28.265094 29057 net.cpp:399] pair/1/conv1 -> pair/1/conv1
I0512 21:30:28.266166 29057 net.cpp:141] Setting up pair/1/conv1
I0512 21:30:28.266186 29057 net.cpp:148] Top shape: 128 64 58 58 (27557888)
I0512 21:30:28.266194 29057 net.cpp:156] Memory required for data: 1582727680
I0512 21:30:28.266203 29057 net.cpp:484] Sharing parameters '/conv1' owned by layer 'anchor/0/conv1', param index 0
I0512 21:30:28.266212 29057 net.cpp:484] Sharing parameters '/conv1_b' owned by layer 'anchor/0/conv1', param index 1
I0512 21:30:28.266227 29057 layer_factory.hpp:77] Creating layer pair/1/relu1
I0512 21:30:28.266239 29057 net.cpp:91] Creating Layer pair/1/relu1
I0512 21:30:28.266249 29057 net.cpp:425] pair/1/relu1 <- pair/1/conv1
I0512 21:30:28.266259 29057 net.cpp:386] pair/1/relu1 -> pair/1/conv1 (in-place)
I0512 21:30:28.266566 29057 net.cpp:141] Setting up pair/1/relu1
I0512 21:30:28.266584 29057 net.cpp:148] Top shape: 128 64 58 58 (27557888)
I0512 21:30:28.266592 29057 net.cpp:156] Memory required for data: 1692959232
I0512 21:30:28.266600 29057 layer_factory.hpp:77] Creating layer pair/1/pool1
I0512 21:30:28.266613 29057 net.cpp:91] Creating Layer pair/1/pool1
I0512 21:30:28.266621 29057 net.cpp:425] pair/1/pool1 <- pair/1/conv1
I0512 21:30:28.266631 29057 net.cpp:399] pair/1/pool1 -> pair/1/pool1
I0512 21:30:28.266685 29057 net.cpp:141] Setting up pair/1/pool1
I0512 21:30:28.266700 29057 net.cpp:148] Top shape: 128 64 29 29 (6889472)
I0512 21:30:28.266707 29057 net.cpp:156] Memory required for data: 1720517120
I0512 21:30:28.266715 29057 layer_factory.hpp:77] Creating layer pair/2/conv1
I0512 21:30:28.266737 29057 net.cpp:91] Creating Layer pair/2/conv1
I0512 21:30:28.266747 29057 net.cpp:425] pair/2/conv1 <- pair/2/data
I0512 21:30:28.266762 29057 net.cpp:399] pair/2/conv1 -> pair/2/conv1
I0512 21:30:28.267954 29057 net.cpp:141] Setting up pair/2/conv1
I0512 21:30:28.267973 29057 net.cpp:148] Top shape: 128 64 58 58 (27557888)
I0512 21:30:28.267982 29057 net.cpp:156] Memory required for data: 1830748672
I0512 21:30:28.267990 29057 net.cpp:484] Sharing parameters '/conv1' owned by layer 'anchor/0/conv1', param index 0
I0512 21:30:28.267999 29057 net.cpp:484] Sharing parameters '/conv1_b' owned by layer 'anchor/0/conv1', param index 1
I0512 21:30:28.268007 29057 layer_factory.hpp:77] Creating layer pair/2/relu1
I0512 21:30:28.268016 29057 net.cpp:91] Creating Layer pair/2/relu1
I0512 21:30:28.268024 29057 net.cpp:425] pair/2/relu1 <- pair/2/conv1
I0512 21:30:28.268033 29057 net.cpp:386] pair/2/relu1 -> pair/2/conv1 (in-place)
I0512 21:30:28.268229 29057 net.cpp:141] Setting up pair/2/relu1
I0512 21:30:28.268245 29057 net.cpp:148] Top shape: 128 64 58 58 (27557888)
I0512 21:30:28.268254 29057 net.cpp:156] Memory required for data: 1940980224
I0512 21:30:28.268268 29057 layer_factory.hpp:77] Creating layer pair/2/pool1
I0512 21:30:28.268281 29057 net.cpp:91] Creating Layer pair/2/pool1
I0512 21:30:28.268290 29057 net.cpp:425] pair/2/pool1 <- pair/2/conv1
I0512 21:30:28.268301 29057 net.cpp:399] pair/2/pool1 -> pair/2/pool1
I0512 21:30:28.268363 29057 net.cpp:141] Setting up pair/2/pool1
I0512 21:30:28.268378 29057 net.cpp:148] Top shape: 128 64 29 29 (6889472)
I0512 21:30:28.268385 29057 net.cpp:156] Memory required for data: 1968538112
I0512 21:30:28.268393 29057 layer_factory.hpp:77] Creating layer pair/0/conv2
I0512 21:30:28.268416 29057 net.cpp:91] Creating Layer pair/0/conv2
I0512 21:30:28.268426 29057 net.cpp:425] pair/0/conv2 <- pair/0/pool1
I0512 21:30:28.268441 29057 net.cpp:399] pair/0/conv2 -> pair/0/conv2
I0512 21:30:28.270702 29057 net.cpp:141] Setting up pair/0/conv2
I0512 21:30:28.270730 29057 net.cpp:148] Top shape: 128 64 27 27 (5971968)
I0512 21:30:28.270745 29057 net.cpp:156] Memory required for data: 1992425984
I0512 21:30:28.270755 29057 net.cpp:484] Sharing parameters '/0/conv2' owned by layer 'anchor/0/conv2', param index 0
I0512 21:30:28.270763 29057 net.cpp:484] Sharing parameters '/0/conv2_b' owned by layer 'anchor/0/conv2', param index 1
I0512 21:30:28.270771 29057 layer_factory.hpp:77] Creating layer pair/0/relu2
I0512 21:30:28.270783 29057 net.cpp:91] Creating Layer pair/0/relu2
I0512 21:30:28.270792 29057 net.cpp:425] pair/0/relu2 <- pair/0/conv2
I0512 21:30:28.270802 29057 net.cpp:386] pair/0/relu2 -> pair/0/conv2 (in-place)
I0512 21:30:28.271111 29057 net.cpp:141] Setting up pair/0/relu2
I0512 21:30:28.271128 29057 net.cpp:148] Top shape: 128 64 27 27 (5971968)
I0512 21:30:28.271136 29057 net.cpp:156] Memory required for data: 2016313856
I0512 21:30:28.271144 29057 layer_factory.hpp:77] Creating layer pair/0/pool2
I0512 21:30:28.271154 29057 net.cpp:91] Creating Layer pair/0/pool2
I0512 21:30:28.271162 29057 net.cpp:425] pair/0/pool2 <- pair/0/conv2
I0512 21:30:28.271175 29057 net.cpp:399] pair/0/pool2 -> pair/0/pool2
I0512 21:30:28.271229 29057 net.cpp:141] Setting up pair/0/pool2
I0512 21:30:28.271246 29057 net.cpp:148] Top shape: 128 64 14 14 (1605632)
I0512 21:30:28.271255 29057 net.cpp:156] Memory required for data: 2022736384
I0512 21:30:28.271268 29057 layer_factory.hpp:77] Creating layer pair/1/conv2
I0512 21:30:28.271294 29057 net.cpp:91] Creating Layer pair/1/conv2
I0512 21:30:28.271306 29057 net.cpp:425] pair/1/conv2 <- pair/1/pool1
I0512 21:30:28.271317 29057 net.cpp:399] pair/1/conv2 -> pair/1/conv2
I0512 21:30:28.273355 29057 net.cpp:141] Setting up pair/1/conv2
I0512 21:30:28.273376 29057 net.cpp:148] Top shape: 128 64 27 27 (5971968)
I0512 21:30:28.273385 29057 net.cpp:156] Memory required for data: 2046624256
I0512 21:30:28.273396 29057 net.cpp:484] Sharing parameters '/1/conv2' owned by layer 'anchor/1/conv2', param index 0
I0512 21:30:28.273409 29057 net.cpp:484] Sharing parameters '/1/conv2_b' owned by layer 'anchor/1/conv2', param index 1
I0512 21:30:28.273417 29057 layer_factory.hpp:77] Creating layer pair/1/relu2
I0512 21:30:28.273427 29057 net.cpp:91] Creating Layer pair/1/relu2
I0512 21:30:28.273435 29057 net.cpp:425] pair/1/relu2 <- pair/1/conv2
I0512 21:30:28.273445 29057 net.cpp:386] pair/1/relu2 -> pair/1/conv2 (in-place)
I0512 21:30:28.273752 29057 net.cpp:141] Setting up pair/1/relu2
I0512 21:30:28.273771 29057 net.cpp:148] Top shape: 128 64 27 27 (5971968)
I0512 21:30:28.273778 29057 net.cpp:156] Memory required for data: 2070512128
I0512 21:30:28.273787 29057 layer_factory.hpp:77] Creating layer pair/1/pool2
I0512 21:30:28.273797 29057 net.cpp:91] Creating Layer pair/1/pool2
I0512 21:30:28.273804 29057 net.cpp:425] pair/1/pool2 <- pair/1/conv2
I0512 21:30:28.273814 29057 net.cpp:399] pair/1/pool2 -> pair/1/pool2
I0512 21:30:28.273870 29057 net.cpp:141] Setting up pair/1/pool2
I0512 21:30:28.273885 29057 net.cpp:148] Top shape: 128 64 14 14 (1605632)
I0512 21:30:28.273891 29057 net.cpp:156] Memory required for data: 2076934656
I0512 21:30:28.273900 29057 layer_factory.hpp:77] Creating layer pair/2/conv2
I0512 21:30:28.273929 29057 net.cpp:91] Creating Layer pair/2/conv2
I0512 21:30:28.273939 29057 net.cpp:425] pair/2/conv2 <- pair/2/pool1
I0512 21:30:28.273952 29057 net.cpp:399] pair/2/conv2 -> pair/2/conv2
I0512 21:30:28.276124 29057 net.cpp:141] Setting up pair/2/conv2
I0512 21:30:28.276144 29057 net.cpp:148] Top shape: 128 64 27 27 (5971968)
I0512 21:30:28.276152 29057 net.cpp:156] Memory required for data: 2100822528
I0512 21:30:28.276161 29057 net.cpp:484] Sharing parameters '/2/conv2' owned by layer 'anchor/2/conv2', param index 0
I0512 21:30:28.276170 29057 net.cpp:484] Sharing parameters '/2/conv2_b' owned by layer 'anchor/2/conv2', param index 1
I0512 21:30:28.276180 29057 layer_factory.hpp:77] Creating layer pair/2/relu2
I0512 21:30:28.276190 29057 net.cpp:91] Creating Layer pair/2/relu2
I0512 21:30:28.276203 29057 net.cpp:425] pair/2/relu2 <- pair/2/conv2
I0512 21:30:28.276216 29057 net.cpp:386] pair/2/relu2 -> pair/2/conv2 (in-place)
I0512 21:30:28.276413 29057 net.cpp:141] Setting up pair/2/relu2
I0512 21:30:28.276432 29057 net.cpp:148] Top shape: 128 64 27 27 (5971968)
I0512 21:30:28.276440 29057 net.cpp:156] Memory required for data: 2124710400
I0512 21:30:28.276448 29057 layer_factory.hpp:77] Creating layer pair/2/pool2
I0512 21:30:28.276458 29057 net.cpp:91] Creating Layer pair/2/pool2
I0512 21:30:28.276466 29057 net.cpp:425] pair/2/pool2 <- pair/2/conv2
I0512 21:30:28.276476 29057 net.cpp:399] pair/2/pool2 -> pair/2/pool2
I0512 21:30:28.276531 29057 net.cpp:141] Setting up pair/2/pool2
I0512 21:30:28.276546 29057 net.cpp:148] Top shape: 128 64 14 14 (1605632)
I0512 21:30:28.276552 29057 net.cpp:156] Memory required for data: 2131132928
I0512 21:30:28.276561 29057 layer_factory.hpp:77] Creating layer pair/0/conv3
I0512 21:30:28.276582 29057 net.cpp:91] Creating Layer pair/0/conv3
I0512 21:30:28.276593 29057 net.cpp:425] pair/0/conv3 <- pair/0/pool2
I0512 21:30:28.276607 29057 net.cpp:399] pair/0/conv3 -> pair/0/conv3
I0512 21:30:28.280726 29057 net.cpp:141] Setting up pair/0/conv3
I0512 21:30:28.280747 29057 net.cpp:148] Top shape: 128 64 5 5 (204800)
I0512 21:30:28.280756 29057 net.cpp:156] Memory required for data: 2131952128
I0512 21:30:28.280764 29057 net.cpp:484] Sharing parameters '/0/conv3' owned by layer 'anchor/0/conv3', param index 0
I0512 21:30:28.280773 29057 net.cpp:484] Sharing parameters '/0/conv3_b' owned by layer 'anchor/0/conv3', param index 1
I0512 21:30:28.280789 29057 layer_factory.hpp:77] Creating layer pair/0/relu3
I0512 21:30:28.280805 29057 net.cpp:91] Creating Layer pair/0/relu3
I0512 21:30:28.280815 29057 net.cpp:425] pair/0/relu3 <- pair/0/conv3
I0512 21:30:28.280825 29057 net.cpp:386] pair/0/relu3 -> pair/0/conv3 (in-place)
I0512 21:30:28.281142 29057 net.cpp:141] Setting up pair/0/relu3
I0512 21:30:28.281162 29057 net.cpp:148] Top shape: 128 64 5 5 (204800)
I0512 21:30:28.281169 29057 net.cpp:156] Memory required for data: 2132771328
I0512 21:30:28.281177 29057 layer_factory.hpp:77] Creating layer pair/0/pool3
I0512 21:30:28.281190 29057 net.cpp:91] Creating Layer pair/0/pool3
I0512 21:30:28.281199 29057 net.cpp:425] pair/0/pool3 <- pair/0/conv3
I0512 21:30:28.281209 29057 net.cpp:399] pair/0/pool3 -> pair/0/pool3
I0512 21:30:28.281267 29057 net.cpp:141] Setting up pair/0/pool3
I0512 21:30:28.281281 29057 net.cpp:148] Top shape: 128 64 3 3 (73728)
I0512 21:30:28.281289 29057 net.cpp:156] Memory required for data: 2133066240
I0512 21:30:28.281296 29057 layer_factory.hpp:77] Creating layer pair/1/conv3
I0512 21:30:28.281318 29057 net.cpp:91] Creating Layer pair/1/conv3
I0512 21:30:28.281329 29057 net.cpp:425] pair/1/conv3 <- pair/1/pool2
I0512 21:30:28.281342 29057 net.cpp:399] pair/1/conv3 -> pair/1/conv3
I0512 21:30:28.285895 29057 net.cpp:141] Setting up pair/1/conv3
I0512 21:30:28.285917 29057 net.cpp:148] Top shape: 128 64 5 5 (204800)
I0512 21:30:28.285924 29057 net.cpp:156] Memory required for data: 2133885440
I0512 21:30:28.285933 29057 net.cpp:484] Sharing parameters '/1/conv3' owned by layer 'anchor/1/conv3', param index 0
I0512 21:30:28.285943 29057 net.cpp:484] Sharing parameters '/1/conv3_b' owned by layer 'anchor/1/conv3', param index 1
I0512 21:30:28.285950 29057 layer_factory.hpp:77] Creating layer pair/1/relu3
I0512 21:30:28.285960 29057 net.cpp:91] Creating Layer pair/1/relu3
I0512 21:30:28.285969 29057 net.cpp:425] pair/1/relu3 <- pair/1/conv3
I0512 21:30:28.285980 29057 net.cpp:386] pair/1/relu3 -> pair/1/conv3 (in-place)
I0512 21:30:28.286288 29057 net.cpp:141] Setting up pair/1/relu3
I0512 21:30:28.286306 29057 net.cpp:148] Top shape: 128 64 5 5 (204800)
I0512 21:30:28.286314 29057 net.cpp:156] Memory required for data: 2134704640
I0512 21:30:28.286329 29057 layer_factory.hpp:77] Creating layer pair/1/pool3
I0512 21:30:28.286341 29057 net.cpp:91] Creating Layer pair/1/pool3
I0512 21:30:28.286350 29057 net.cpp:425] pair/1/pool3 <- pair/1/conv3
I0512 21:30:28.286370 29057 net.cpp:399] pair/1/pool3 -> pair/1/pool3
I0512 21:30:28.286427 29057 net.cpp:141] Setting up pair/1/pool3
I0512 21:30:28.286453 29057 net.cpp:148] Top shape: 128 64 3 3 (73728)
I0512 21:30:28.286461 29057 net.cpp:156] Memory required for data: 2134999552
I0512 21:30:28.286468 29057 layer_factory.hpp:77] Creating layer pair/2/conv3
I0512 21:30:28.286484 29057 net.cpp:91] Creating Layer pair/2/conv3
I0512 21:30:28.286494 29057 net.cpp:425] pair/2/conv3 <- pair/2/pool2
I0512 21:30:28.286504 29057 net.cpp:399] pair/2/conv3 -> pair/2/conv3
I0512 21:30:28.290627 29057 net.cpp:141] Setting up pair/2/conv3
I0512 21:30:28.290648 29057 net.cpp:148] Top shape: 128 64 5 5 (204800)
I0512 21:30:28.290657 29057 net.cpp:156] Memory required for data: 2135818752
I0512 21:30:28.290665 29057 net.cpp:484] Sharing parameters '/2/conv3' owned by layer 'anchor/2/conv3', param index 0
I0512 21:30:28.290674 29057 net.cpp:484] Sharing parameters '/2/conv3_b' owned by layer 'anchor/2/conv3', param index 1
I0512 21:30:28.290683 29057 layer_factory.hpp:77] Creating layer pair/2/relu3
I0512 21:30:28.290699 29057 net.cpp:91] Creating Layer pair/2/relu3
I0512 21:30:28.290709 29057 net.cpp:425] pair/2/relu3 <- pair/2/conv3
I0512 21:30:28.290719 29057 net.cpp:386] pair/2/relu3 -> pair/2/conv3 (in-place)
I0512 21:30:28.290915 29057 net.cpp:141] Setting up pair/2/relu3
I0512 21:30:28.290930 29057 net.cpp:148] Top shape: 128 64 5 5 (204800)
I0512 21:30:28.290938 29057 net.cpp:156] Memory required for data: 2136637952
I0512 21:30:28.290946 29057 layer_factory.hpp:77] Creating layer pair/2/pool3
I0512 21:30:28.290962 29057 net.cpp:91] Creating Layer pair/2/pool3
I0512 21:30:28.290971 29057 net.cpp:425] pair/2/pool3 <- pair/2/conv3
I0512 21:30:28.290984 29057 net.cpp:399] pair/2/pool3 -> pair/2/pool3
I0512 21:30:28.291040 29057 net.cpp:141] Setting up pair/2/pool3
I0512 21:30:28.291054 29057 net.cpp:148] Top shape: 128 64 3 3 (73728)
I0512 21:30:28.291062 29057 net.cpp:156] Memory required for data: 2136932864
I0512 21:30:28.291079 29057 layer_factory.hpp:77] Creating layer pair/0/ip1
I0512 21:30:28.291100 29057 net.cpp:91] Creating Layer pair/0/ip1
I0512 21:30:28.291110 29057 net.cpp:425] pair/0/ip1 <- pair/0/pool3
I0512 21:30:28.291122 29057 net.cpp:399] pair/0/ip1 -> pair/0/ip1
I0512 21:30:28.300578 29057 net.cpp:141] Setting up pair/0/ip1
I0512 21:30:28.300598 29057 net.cpp:148] Top shape: 128 512 (65536)
I0512 21:30:28.300606 29057 net.cpp:156] Memory required for data: 2137195008
I0512 21:30:28.300614 29057 net.cpp:484] Sharing parameters '/0/ip1' owned by layer 'anchor/0/ip1', param index 0
I0512 21:30:28.300623 29057 net.cpp:484] Sharing parameters '/0/ip1_b' owned by layer 'anchor/0/ip1', param index 1
I0512 21:30:28.300631 29057 layer_factory.hpp:77] Creating layer pair/0/norm
I0512 21:30:28.300640 29057 net.cpp:91] Creating Layer pair/0/norm
I0512 21:30:28.300648 29057 net.cpp:425] pair/0/norm <- pair/0/ip1
I0512 21:30:28.300660 29057 net.cpp:399] pair/0/norm -> pair/0/feat
I0512 21:30:28.300709 29057 net.cpp:141] Setting up pair/0/norm
I0512 21:30:28.300722 29057 net.cpp:148] Top shape: 128 512 (65536)
I0512 21:30:28.300729 29057 net.cpp:156] Memory required for data: 2137457152
I0512 21:30:28.300736 29057 layer_factory.hpp:77] Creating layer pair/1/ip1
I0512 21:30:28.300750 29057 net.cpp:91] Creating Layer pair/1/ip1
I0512 21:30:28.300760 29057 net.cpp:425] pair/1/ip1 <- pair/1/pool3
I0512 21:30:28.300770 29057 net.cpp:399] pair/1/ip1 -> pair/1/ip1
I0512 21:30:28.310222 29057 net.cpp:141] Setting up pair/1/ip1
I0512 21:30:28.310245 29057 net.cpp:148] Top shape: 128 512 (65536)
I0512 21:30:28.310252 29057 net.cpp:156] Memory required for data: 2137719296
I0512 21:30:28.310261 29057 net.cpp:484] Sharing parameters '/0/ip1' owned by layer 'anchor/0/ip1', param index 0
I0512 21:30:28.310269 29057 net.cpp:484] Sharing parameters '/0/ip1_b' owned by layer 'anchor/0/ip1', param index 1
I0512 21:30:28.310277 29057 layer_factory.hpp:77] Creating layer pair/1/norm
I0512 21:30:28.310295 29057 net.cpp:91] Creating Layer pair/1/norm
I0512 21:30:28.310309 29057 net.cpp:425] pair/1/norm <- pair/1/ip1
I0512 21:30:28.310320 29057 net.cpp:399] pair/1/norm -> pair/1/feat
I0512 21:30:28.310379 29057 net.cpp:141] Setting up pair/1/norm
I0512 21:30:28.310394 29057 net.cpp:148] Top shape: 128 512 (65536)
I0512 21:30:28.310400 29057 net.cpp:156] Memory required for data: 2137981440
I0512 21:30:28.310408 29057 layer_factory.hpp:77] Creating layer pair/2/ip1
I0512 21:30:28.310425 29057 net.cpp:91] Creating Layer pair/2/ip1
I0512 21:30:28.310434 29057 net.cpp:425] pair/2/ip1 <- pair/2/pool3
I0512 21:30:28.310447 29057 net.cpp:399] pair/2/ip1 -> pair/2/ip1
I0512 21:30:28.319890 29057 net.cpp:141] Setting up pair/2/ip1
I0512 21:30:28.319911 29057 net.cpp:148] Top shape: 128 512 (65536)
I0512 21:30:28.319918 29057 net.cpp:156] Memory required for data: 2138243584
I0512 21:30:28.319926 29057 net.cpp:484] Sharing parameters '/0/ip1' owned by layer 'anchor/0/ip1', param index 0
I0512 21:30:28.319936 29057 net.cpp:484] Sharing parameters '/0/ip1_b' owned by layer 'anchor/0/ip1', param index 1
I0512 21:30:28.319943 29057 layer_factory.hpp:77] Creating layer pair/2/norm
I0512 21:30:28.319952 29057 net.cpp:91] Creating Layer pair/2/norm
I0512 21:30:28.319960 29057 net.cpp:425] pair/2/norm <- pair/2/ip1
I0512 21:30:28.319973 29057 net.cpp:399] pair/2/norm -> pair/2/feat
I0512 21:30:28.320019 29057 net.cpp:141] Setting up pair/2/norm
I0512 21:30:28.320034 29057 net.cpp:148] Top shape: 128 512 (65536)
I0512 21:30:28.320040 29057 net.cpp:156] Memory required for data: 2138505728
I0512 21:30:28.320047 29057 layer_factory.hpp:77] Creating layer concat
I0512 21:30:28.320065 29057 net.cpp:91] Creating Layer concat
I0512 21:30:28.320075 29057 net.cpp:425] concat <- pair/0/feat
I0512 21:30:28.320083 29057 net.cpp:425] concat <- pair/1/feat
I0512 21:30:28.320092 29057 net.cpp:425] concat <- pair/2/feat
I0512 21:30:28.320108 29057 net.cpp:399] concat -> pair/feat
I0512 21:30:28.320143 29057 net.cpp:141] Setting up concat
I0512 21:30:28.320158 29057 net.cpp:148] Top shape: 128 1536 (196608)
I0512 21:30:28.320164 29057 net.cpp:156] Memory required for data: 2139292160
I0512 21:30:28.320171 29057 layer_factory.hpp:77] Creating layer loss
I0512 21:30:28.320189 29057 net.cpp:91] Creating Layer loss
I0512 21:30:28.320199 29057 net.cpp:425] loss <- anchor/feat
I0512 21:30:28.320207 29057 net.cpp:425] loss <- pair/feat
I0512 21:30:28.320215 29057 net.cpp:425] loss <- label
I0512 21:30:28.320227 29057 net.cpp:399] loss -> loss
…
